hw1/code/result/weight.npy (npy, 1432 bytes, 1 tensors)

array f8 [163, 1]
000000 52 65 d5 ae bf 86 3f 40 84 3d ee 60 e7 cc c2 3f
       31.526362349604206 0.14687816842022638
000010 69 e9 78 a7 fe 30 03 c0 20 3b 8b 57 69 51 f5 3f
       -2.3989232143186894 1.3323758525545557
000020 34 d4 8a ce 49 40 f7 3f 16 48 c0 a7 ac e8 0b 40
       1.4531953876551258 3.488610563807934
000030 bc ac 8c 11 72 16 11 c0 bc 75 3b 13 6c c2 ee bf
       -4.271919511996369 -0.9612331748609715
000040 df d9 6c e6 4f f4 d7 3f 64 6b 15 ef 2a c1 fc 3f
       0.37428662779293903 1.797160085602365
000050 ac f8 86 67 30 46 b4 bf e2 07 14 1a 4b 84 ea bf
       -0.07919600036163627 -0.8286490926113823
000060 9b 30 88 51 9a 00 c3 bf ea ae 6a 8b 5b 97 e1 bf
       -0.148455896196883 -0.5497262690527951
000070 5c 81 3b 1a 41 2e e1 3f 58 90 4e 61 2d d3 d0 bf
       0.5368962776520152 -0.2628892374289129
000080 2d 43 21 c2 4e 85 bb 3f 5e 25 23 ba 07 75 db 3f
       0.10750286330700183 0.42901795556516287
000090 e4 01 7d 13 77 5d d6 3f 60 05 1c 91 60 6e eb 3f
       0.3494546594920662 0.8572237810296137
0000a0 f8 52 e5 fc 30 6f d4 bf 93 54 1d de a1 da da bf
       -0.3192865819631119 -0.4195942563140502
0000b0 74 7e 9b 2a 1f 6e ee bf 60 3b 9f bb 29 45 c1 3f
       -0.950942595689368 0.1349231878397985
0000c0 32 1e 90 20 00 03 e0 bf 95 80 76 df f6 86 d2 bf
       -0.5003662715907409 -0.2894875700240019
0000d0 dc af e4 0c b4 a8 c0 bf 44 a9 94 b7 4c ef 00 40
       -0.13014841680103373 2.116845545028953
0000e0 db 99 65 0a c5 3d d9 bf 44 02 ce 60 9e 86 ca bf
       -0.39439512267418103 -0.20723323561471052
0000f0 6e 86 a2 bf f6 00 d8 3f 85 ff 40 ad 75 b6 00 40
       0.37505882944433366 2.0890916381321767
000100 06 9e a4 07 71 ec 02 c0 ec ee b7 59 ff 4b f8 bf
       -2.3654499623405654 -1.5185540680531018
000110 0e 09 6a 26 5f 7b 84 3f 51 25 f8 50 e0 06 f9 bf
       0.010000937804993029 -1.564178768431095
000120 e0 b9 d8 e3 47 35 08 c0 a7 50 27 70 98 fd cd bf
       -3.026016025592284 -0.23430161930321455
000130 83 02 b6 fc b4 43 f4 bf ed 4e d4 c4 6c 47 c7 3f
       -1.2665300246736997 0.18186721430594535
000140 f0 98 2b 8c 57 ad 06 c0 52 1c 2d 90 74 fd f3 3f
       -2.83463963993119 1.2493787414439521
000150 11 44 07 6a 9e 16 d7 bf 55 7f 1f 83 38 4f d5 3f
       -0.3607555423196241 0.3329602509020238
000160 50 1c e1 16 37 43 d9 bf 12 2b 0c 7d 96 b1 f0 bf
       -0.3947274897986448 -1.0433564076108195
000170 db 53 25 f6 b4 f9 e7 3f 2d 9a 58 c7 db d8 d8 3f
       0.749231796983277 0.3882359930743487
000180 5d 55 d1 74 91 a9 bb bf 3e b1 63 6d 42 9c 0c c0
       -0.10805615522379726 -3.57629857502448
000190 05 af be 6e b2 05 d9 3f fb 6d 35 f1 8b f0 ee bf
       0.39097271742751644 -0.9668636046512228
0001a0 9b 66 c3 34 f3 a1 02 c0 05 b2 52 ee a7 da 01 c0
       -2.3290771600848763 -2.2317656153666143
0001b0 39 6b fc 74 fd 96 f0 3f 97 43 c1 be b9 77 f2 bf
       1.036862809158903 -1.1542298747410535
0001c0 48 01 f3 6f 97 c8 03 40 13 13 10 0e bf 1d f8 bf
       2.4729450937303774 -1.5072622823074127
0001d0 3f b7 66 66 8b e8 13 40 60 3c dd 28 1c ad d3 bf
       4.97709426881721 -0.3074407958092191
0001e0 a6 fd b5 54 a8 55 c7 3f f6 23 d6 de 37 62 fa 3f
       0.18230156074785703 1.6489790634680026
0001f0 54 8d 7a 28 55 4d fe 3f 15 7c b7 bb c8 3d 09 40
       1.8938800412368737 3.1551680245752416
000200 8a 12 a7 b2 1a a8 eb bf d4 36 84 39 7c c3 05 40
       -0.8642705430325617 2.7204517835115016
000210 b5 db 3e 13 d2 0f 0b c0 8a a5 0d 06 7c 65 f3 3f
       -3.3827249053533373 1.2122764812905609
000220 3a 0b a7 48 ce 80 ef 3f ca 31 68 ed 87 5d f8 bf
       0.9844733637804446 -1.522834708567745
000230 b2 4f e9 06 55 a6 0b c0 c4 bc 97 19 4f 23 cd 3f
       -3.4562168636275254 0.22764004468579035
000240 d4 aa f3 1b e4 b1 15 40 64 f0 c2 e8 71 be e5 3f
       5.423721729991218 0.6794976755259197
000250 51 5e 9d d4 d0 29 c3 3f 0e bc aa 1a 07 f4 f6 bf
       0.14971361524179597 -1.4345770875622779
000260 67 2a 60 5e 27 82 02 40 b5 54 1e 9b 4a 86 00 40
       2.313551652250044 2.0655719870215656
000270 d6 0d f2 57 97 84 0f c0 fa 59 f7 e5 79 8f 0f 40
       -3.9397417898887666 3.9450567213164023
000280 3c 6c bc 52 66 6a f8 3f e7 3f b5 b8 1e 52 f9 3f
       1.5259764892459904 1.5825488295704362
000290 84 d5 4c 67 8d fa 00 c0 bc ff 29 41 8d a9 dd 3f
       -2.122340018303193 0.463473619114662
0002a0 7e 1d a7 7d 6a c3 0c 40 f3 c2 23 ec 2f 1e 12 c0
       3.5954179588913453 -4.529479684527121
0002b0 76 c6 d2 c3 15 2b a4 3f ef c2 6d 62 2d c6 1e 40
       0.03939121261045113 7.693532503079708
0002c0 6b 9e 6f 84 c9 48 23 c0 68 c3 da ac 0c 95 e0 3f
       -9.642162455201477 0.5181945205750766
0002d0 87 a3 17 5c aa 1b 2f 40 7d e6 19 b1 27 4a b6 3f
       15.554034116635888 0.0870690162063514
0002e0 28 2f 58 a3 6a 8b cd 3f 06 89 60 ea b5 73 cc 3f
       0.23081715560726335 0.22228120750612151
0002f0 89 2c 19 57 bf 45 cc 3f da 8a fa db 74 b6 9d bf
       0.22087852242325237 -0.02901632874148672
000300 3c d4 3d 74 eb 41 d0 bf 2d 53 f0 45 e3 2a c5 3f
       -0.25402342178069026 0.1653713313577553
000310 9b 5c 33 e6 60 c1 b6 bf 71 56 53 8c c7 b6 ba bf
       -0.08888822193272221 -0.10435149360577058
000320 9f 2e bb af f7 7b e8 3f 3c 49 09 41 cc df ec 3f
       0.7651327545404064 0.9023190756072732
000330 81 08 c1 6a 91 2a 07 c0 ce f9 b4 e6 d3 27 07 40
       -2.895785173431307 2.8944471382121497
000340 fe ab c1 68 66 06 00 c0 f6 3c 92 61 d3 91 d0 bf
       -2.0031250175575215 -0.2589004948467414
000350 bb ee 95 96 87 83 17 c0 01 98 3a da fe 0f ff 3f
       -5.878446915532261 1.9414051556173038
000360 aa ce 44 38 ee 75 0f 40 76 5d f8 6b 1d a4 f0 bf
       3.9325832744596783 -1.0400671212754253
000370 30 c5 51 1f ae b4 e7 3f 61 0a 18 cf f7 04 e8 3f
       0.7408056842524839 0.75060644577054
000380 61 47 39 9b b8 e4 f2 bf 52 58 dd 02 67 16 e7 3f
       -1.1808401168277316 0.7214846664380821
000390 22 15 86 40 3b 64 d3 bf 04 f6 ea ca 38 60 d3 bf
       -0.30299264241360124 -0.3027479154223729
0003a0 34 db ab 91 e5 40 c8 bf 73 1a 95 06 d1 3a f0 3f
       -0.1894804917607985 1.0143594987036095
0003b0 49 6b 6f 32 22 a3 c2 bf 4f f4 36 9c 23 a4 ba bf
       -0.14560344183595422 -0.10406706394037822
0003c0 c0 af 30 27 0e 36 ce 3f f9 d0 24 b9 f2 07 eb 3f
       0.2360246363981542 0.8447202316370116
0003d0 49 91 f1 73 77 bd de bf 7a 32 d4 e3 17 03 09 40
       -0.4803141243230767 3.1265104102261008
0003e0 32 7d 86 a6 9b b0 ee bf 35 e4 bd 04 d1 5d 06 40
       -0.9590585949371528 2.7958088274431483
0003f0 bd 78 b1 07 25 36 f7 3f 65 1a 31 4d 39 4a bf 3f
       1.4507189083592913 0.12222631582799577
000400 03 7c b4 f6 24 d6 9b 3f a6 60 b6 83 3a db e8 bf
       0.02718408351676872 -0.7767613003261615
000410 92 3b f7 4c 84 25 f2 bf 0f 65 87 2e ad 76 d8 3f
       -1.1341593748545375 0.38224343818508627
000420 3e 17 a9 db fc 48 f5 bf d3 b1 59 e4 75 41 d5 bf
       -1.3303192692269046 -0.33212039279785904
000430 5b 2d 5a b0 31 2f c6 bf f3 73 2e e3 e8 ad e8 bf
       -0.17331524954748087 -0.7712292134416415
000440 a6 38 47 d7 a6 eb bc bf 4c 22 d8 dc 1c 7b c2 bf
       -0.11297075992408398 -0.14438210280811103
000450 f3 70 cc 09 31 19 ec 3f 5a 39 1c 2b 3b 94 c6 bf
       0.8780751410845639 -0.17639865498535806
000460 66 01 51 1a 02 3f d4 3f ce f8 5b e6 5b b2 68 bf
       0.3163457161899913 -0.003014735690952986
000470 55 0a 9f 7d d0 b9 c6 bf ec bf bc 0d 79 d0 dd 3f
       -0.1775456059823052 0.46584917394193215
000480 76 6c 4b 08 55 aa c3 3f f5 3b bc 63 3b 98 c6 3f
       0.15363562493334698 0.17652075166594697
000490 70 6b 4d 62 5a f4 e5 3f 90 e4 62 54 e6 21 df bf
       0.6860782546967652 -0.4864440750203096
0004a0 d8 51 07 6a 7e fd c6 bf aa 59 ae ee cf 01 a5 bf
       -0.1796110170095193 -0.04102945126139741
0004b0 4f a2 31 50 2b 27 c1 3f 10 91 f6 59 e3 81 aa 3f
       0.13400784888951242 0.05177221749480243
0004c0 f7 0a e8 ce 7b 93 f3 bf 08 fd 01 74 22 84 b3 bf
       -1.223506744602387 -0.07623496372433547
0004d0 9c f8 2c bb f9 ee c9 bf 37 a9 fa 58 25 18 c1 bf
       -0.20260545386731088 -0.13354937405285636
0004e0 77 5c 7a 5c c1 6b da 3f ae fb ab b7 42 c9 d0 3f
       0.4128268626313409 0.2622839730901728
0004f0 c9 e1 f7 57 39 21 c2 bf c1 68 f7 37 09 14 d9 3f
       -0.14163891597105607 0.3918479010150229
000500 6b 9e c8 bd 1b f6 e0 bf b7 38 0c ae 9a 14 a9 3f
       -0.5300425249778987 0.04898532271009642
000510 80 c5 2b eb 1b 3a e7 3f
       0.725843390768361
